Deep Learning Basics/1a/model.pth (torch, 471819 bytes, 26 tensors)

conv1.weight f4 [32, 1, 5, 5]
000000 4c 57 8f 3f c2 eb 8f 3f c5 d3 a1 3f 99 08 4b 3e
       1.1198516 1.1243823 1.2642752 0.19827498
000010 63 0c 13 c0 bb 0d 07 bf 3f 0e f8 bf c0 64 88 bf
       -2.297631 -0.52755326 -1.9379348 -1.0655746
000020 a5 01 09 3f 34 34 b4 be d2 1e d4 bf 71 1a 36 c0
       0.53518134 -0.35196078 -1.6571906 -2.8453639
000030 ba 03 17 bf 2c ca a9 3f 39 7e 1f 3f 72 a1 88 3f
       -0.5899006 1.3264823 0.62301975 1.0674269
000040 ea 06 23 3f 27 26 8f 3f 0c da 20 3f 8d c8 d5 be
       0.63682425 1.1183518 0.62832713 -0.4175457
000050 a5 8a 98 3f 25 1f c9 3e c8 22 8b bf 13 50 c3 bf
       1.1917311 0.39281574 -1.0869989 -1.5258812
000060 a3 88 0c bf ed 31 1b 3f fd 07 65 3e 6a 55 cb be
       -0.5489599 0.60623056 0.22366329 -0.39713603
000070 4e ec 36 bf c5 b0 c2 be f1 da 8e 3f 3d 69 41 3f
       -0.7145432 -0.3802549 1.1160566 0.75551206
000080 93 dc 28 3f 1e a8 bb 3e 12 f0 2f 3f 44 62 89 bd
       0.6596157 0.366517 0.68725693 -0.06708196
000090 16 10 aa 3e 7b ba 8a 3f 03 ea 63 3f 8b 4a 9b 3f
       0.33215398 1.0838159 0.8902895 1.2132124
0000a0 54 eb 39 c0 11 4c 14 c0 fd 48 9b bf 8b ca df bf
       -2.9049883 -2.3171427 -1.2131649 -1.7483686
0000b0 51 40 db bf 7c 4f 80 bf 53 81 3f c0 3f f7 87 c0
       -1.7129003 -1.0024257 -2.9922683 -4.2489314
0000c0 bb 13 87 c0 d5 2e 44 c0 04 ba 6d bf f3 f6 ff 3d
       -4.2211585 -3.0653584 -0.9286196 0.12498274
0000d0 58 14 9d 3f 1a c8 b0 3f de a7 9c 3f 51 f9 af bf
       1.2271833 1.3811066 1.2238729 -1.374796
0000e0 2b f2 69 c0 29 a7 ac bf e7 da e9 3e 86 69 ab 3f
       -3.6554058 -1.3488513 0.45674822 1.3391578
0000f0 ac 9c bd 3f 78 88 d5 bf 07 14 3f c0 86 8c f4 bf
       1.4813437 -1.6682272 -2.9855974 -1.9105384
000100 c4 1f 28 3f 4b 0c 46 3f 3e 5d 0f 3e a8 c9 a7 bf
       0.6567347 0.7736251 0.14000413 -1.3108416
000110 65 bf 59 c0 d7 54 b5 bf fd 32 80 3f d2 98 b9 3e
       -3.4023068 -1.4166516 1.001556 0.36249405
000120 c4 63 59 3f 6d 6a 14 3c a1 5d 69 3e 47 09 de bf
       0.84917855 0.009058577 0.22789623 -1.7346581
000130 f1 77 a5 bf 29 fa 3b bf 3f 19 12 be a0 e2 20 3f
       -1.2927228 -0.7342859 -0.14267443 0.628458
000140 e7 30 9a bf 52 76 2e c0 7d 28 ea bf 97 48 05 c0
       -1.2046174 -2.7259717 -1.8293606 -2.0825555
000150 ed 11 3e bf 8b 1f f8 3e a5 e7 98 bf 44 36 00 c0
       -0.742461 0.48461565 -1.1945692 -2.003312
000160 f8 c8 04 c0 06 11 2a bf 50 76 82 3f 23 8f f9 3e
       -2.0747662 -0.66432226 1.0192356 0.48742017
000170 e8 60 e0 bf 96 85 2d c0 d7 90 1f bf 7f 1d c7 3f
       -1.7529573 -2.7112784 -0.62330383 1.5555876
000180 ba 40 fb 3e b5 f1 1d bf f9 32 04 c0 f2 22 9c bf
       0.4907282 -0.6169694 -2.0656111 -1.2198164
000190 d1 c6 4a 3f 23 40 9a 3f dc f8 8e 3f 9b 35 ad 3f
       0.7920962 1.2050823 1.1169696 1.3531984
0001a0 19 e6 ce 3f 5f c5 a7 3f 68 fb 8b 3f 4c 5b 9b 3f
       1.616397 1.3107108 1.0936098 1.2137237
0001b0 a5 fc 7f 3f f8 49 95 3f b8 c2 02 bd 4a b3 1d bf
       0.9999488 1.1663198 -0.03192398 -0.616017
0001c0 fc 2c 2a bf c6 2a 44 bf 4f 9b be 3c 38 1d 87 bf
       -0.6647489 -0.7662777 0.023267416 -1.0555792
0001d0 3f ec 01 c0 c0 d8 23 c0 15 2f 0f c0 e8 f9 a0 bf
       -2.0300443 -2.5601044 -2.2372487 -1.2576265
0001e0 c9 cf 2c be ca 11 51 bf f1 58 bc bf e3 de 2b bf
       -0.16876139 -0.8166777 -1.4714643 -0.67136973
0001f0 7d 5a d5 be 68 b8 25 3f 13 60 8f be a1 22 5e bf
       -0.416706 0.64734507 -0.28002986 -0.8677159
000200 6f 36 a7 bf 37 5f 20 3f 74 d0 b1 3f 6c 2f 8b be
       -1.3063487 0.62645286 1.389174 -0.27184618
000210 77 ff 18 c0 8a 24 09 bf 89 69 b2 3f 4c 3d 11 40
       -2.3905923 -0.5357138 1.3938457 2.2693663
000220 9e 81 12 bf 60 42 3c c0 4f 6c 3f 3f 95 f9 cc 3f
       -0.5722903 -2.9415512 0.7477464 1.6013666
000230 8b 55 cb 3f 28 08 06 c0 81 47 03 c0 8d 2c d6 3f
       1.5885481 -2.0942478 -2.0512393 1.6732346
000240 3f c2 50 3f fa 9e b2 3c 36 26 4c bf 8e fd ac 3d
       0.81546396 0.021804322 -0.79745805 0.08446799
000250 58 5e 2e 3f da 2b f1 be af f0 4a 40 59 7d 5d 3f
       0.6811271 -0.4710377 3.1709402 0.8651939
000260 19 64 5d be 0f a4 a3 3e db 4f 93 3f bd 94 01 40
       -0.21620215 0.31961104 1.1508745 2.0247033
000270 9b b5 1b 3f cd 28 9c bf d0 9e 8e bf 5e fb 2a 3e
       0.6082398 -1.2199951 -1.1142216 0.16697451
000280 2b a4 d4 3f d3 f2 63 3f 4d 2d a5 bf 32 55 e1 bf
       1.66126 0.89042395 -1.290445 -1.7604125
000290 13 82 c4 bf 28 8a a6 3f 79 bb 0d 3f 5d ad 48 bf
       -1.5352196 1.3010912 0.55364186 -0.7838953
0002a0 01 e0 cc bf 2e df cd bf 56 e5 ed bc f6 9b c1 3c
       -1.600586 -1.6083734 -0.02904002 0.023633938
0002b0 38 88 82 bf d1 23 92 bf b5 1f 9d bf bc eb 81 bf
       -1.0197821 -1.141718 -1.2275301 -1.0150065
0002c0 b7 8f ee be 99 ca 56 bf b0 e3 c6 bf 87 e0 c6 bf
       -0.4659402 -0.8390289 -1.5538235 -1.553727
0002d0 9f 7f 77 3e 95 07 7a 3f a1 bc 58 bf db 0a c8 bf
       0.24169777 0.9766782 -0.84662825 -1.5628313
0002e0 f4 57 97 bf 0a 0e 3f 3e 7e 0e ce 3f c7 1d 8a 3e
       -1.1823716 0.18657699 1.6098173 0.26975843
0002f0 ac 58 34 bf 48 98 4f bf 9a 80 5f 3f 61 f6 0c 40
       -0.704478 -0.8109174 0.87305605 2.2025378
000300 80 57 90 3f e6 81 8c 3e 9a ae 80 bf da a0 6e 3f
       1.1276703 0.27442855 -1.0053284 0.9321419
000310 b9 d9 9a 3f 6f e8 0a 3f 63 ad f9 3e ca 0a 80 bf
       1.2097694 0.54260916 0.48765096 -1.0003293
000320 ad b1 b6 3f f6 a1 62 3f 05 8b 98 bf 80 42 33 c0
       1.4272972 0.8852838 -1.1917425 -2.8009338
000330 b8 b9 5b bf 99 6f 86 3e 88 d7 1d c0 a7 cb 3a c0
       -0.8583026 0.26257017 -2.46628 -2.91868
000340 76 7c 65 bd 27 8d c5 3f bf 53 87 bf a5 45 24 c0
       -0.0560269 1.5433701 -1.0572432 -2.5667508
000350 96 b6 ba 3e cf da 9e 3f e5 da b4 3f 27 98 12 c0
       0.36467427 1.2410525 1.4129301 -2.2905366
000360 1c 76 dd be 17 e9 55 3f 15 8f 4c 3f 31 8f 3e 3f
       -0.43254173 0.8355879 0.79905826 0.7443724
000370 6d f5 12 c0 f3 24 fb be d2 c3 ff be 17 15 77 be
       -2.2962296 -0.49051628 -0.49954087 -0.24129139
000380 85 ce 68 be 7a 18 fd 3e ac 92 94 bf 48 57 c5 bf
       -0.22735031 0.49432737 -1.1607261 -1.5417261
000390 d4 92 0a bf 5b 6a d8 3e 85 9d 3d c0 d0 bb da bf
       -0.5413029 0.42268643 -2.9627392 -1.7088566
0003a0 37 5f 51 be 1b 6b 85 3f 47 4d be 3f 9d 18 8f be
       -0.20446478 1.0423311 1.4867333 -0.27948466
0003b0 95 1c 04 40 b4 57 c0 3f 4e 5f 5b 3f f9 52 54 3f
       2.0642445 1.5026765 0.856923 0.82939106
0003c0 f5 99 ab 3f 82 d5 c5 3f 62 df a2 3e 22 cf b4 bf
       1.3406359 1.5455782 0.31811053 -1.4125712
0003d0 b3 72 06 3f 47 d9 35 bf 68 77 ca bf 4f d6 fc bf
       0.5251877 -0.71034664 -1.581769 -1.9752902
0003e0 0b ac c7 bf 04 ec 60 3f 9e ba 99 bf b9 5d 95 bf
       -1.5599378 0.8786013 -1.2010076 -1.1669227
0003f0 a7 a1 5e bf b3 66 17 3f 2a ca 16 3f 10 14 f8 bf
       -0.8696541 0.5914108 0.5890223 -1.9381123

conv1.bias f4 [32]
000000 39 86 fe be 25 ee 98 bd 7a 96 20 be db af 12 bd
       -0.4971178 -0.074672975 -0.15682402 -0.03581224
000010 e7 f8 4c 3d f1 e4 b9 be d8 61 bc bd 72 a3 20 3e
       0.05004206 -0.3630748 -0.0919835 0.1568735
000020 c9 55 a8 3d d2 df 67 be 04 1b 59 be a3 e1 0c be
       0.08219487 -0.22643974 -0.21201712 -0.13757949
000030 ff 19 6c bb 10 94 8e bc 2d 23 89 bd 73 2e 62 3e
       -0.0036026237 -0.017404586 -0.066961624 0.22088031
000040 9a bc f8 3c d5 15 ab 3d 6c d2 34 3e 41 cb 04 3e
       0.03036337 0.083537735 0.17658395 0.1296816
000050 84 5c b8 3d 68 3c 61 bd 7d 7f fd 3d ae c3 81 3d
       0.09002021 -0.05498925 0.12377832 0.06336151
000060 df a0 4f bd 57 7a f7 3d e0 ee 78 be 8c 95 bf 3c
       -0.050690528 0.12083881 -0.24309874 0.02338674
000070 1c 0f 98 3e bd 83 22 be f9 70 97 bd 1b 84 73 3d
       0.29699028 -0.15870567 -0.07394595 0.059452157

bn1.weight f4 [32]
000000 52 af 0a 40 a9 8d 41 3f 16 cc 71 40 cc ac b4 3f
       2.1669507 0.7560678 3.7780814 1.4115233
000010 64 bc 8f 3f e7 fe 46 40 7e 6e 94 3f 57 50 43 3e
       1.1229367 3.109308 1.159622 0.19073616
000020 0a 63 1f 40 7f 70 b1 3f e9 03 9a 3f a1 a3 71 40
       2.4904199 1.3862456 1.2032443 3.775612
000030 f9 5a 8b 3f 32 55 e3 3f e8 6e dc 3f ee b6 14 40
       1.0887138 1.7760375 1.7221346 2.3236651
000040 10 09 65 3f 2f 64 a8 3f 9f c6 1c 40 a2 81 c4 3f
       0.89466953 1.3155574 2.4496229 1.5352061
000050 22 4c 85 3f 7d 56 d5 3f a6 c8 ca 3f 47 f3 c6 3f
       1.0413859 1.6667019 1.5842483 1.5542992
000060 4c b1 19 40 28 87 96 3f 6b cc a9 3f 4d c4 4c 40
       2.4014463 1.1759996 1.3265508 3.1994812
000070 0b 7f 23 40 57 b1 86 3f 6e 12 02 40 53 86 a1 3f
       2.554629 1.052287 2.0323749 1.2619117

bn1.bias f4 [32]
000000 fc c1 77 bf 4f 54 b5 be 09 54 eb be eb 13 19 bf
       -0.9678037 -0.35415885 -0.4596255 -0.5979602
000010 65 b2 d3 3e ac 72 43 bf c1 7b 80 bf 49 1c 3f bf
       0.41347042 -0.7634685 -1.0037767 -0.74652535
000020 71 37 37 bf c3 28 4c bf 8b e8 e9 bf 9d 91 ef bf
       -0.7156897 -0.797497 -1.8274091 -1.8716313
000030 84 f2 1e bf 82 be 5f bf ea 2b 19 c0 d5 a9 9e be
       -0.620888 -0.87400067 -2.3933053 -0.30988947
000040 48 29 63 bf 6b d7 82 bf f2 c9 a8 bf 21 07 0d c0
       -0.88734865 -1.022199 -1.3186629 -2.20356
000050 da c4 e6 bf c9 47 c5 bf bc af cc 3e 7b bc fb be
       -1.8028824 -1.5412532 0.39977825 -0.49167237
000060 7c 0e e2 bf 34 cd 01 3c cc 5a be bf 4d eb 0b bf
       -1.766067 0.007922459 -1.4871459 -0.54655915
000070 fb 4b 75 bd d2 75 5e bf 7b f9 be bf bd 68 0b bf
       -0.059886914 -0.8689853 -1.4919885 -0.5445669

bn1.running_mean f4 [32]
000000 26 92 fb 3f 9d ce 3d 41 72 5a c7 40 76 08 74 41
       1.9653976 11.862943 6.2297907 15.252066
000010 20 d9 10 40 51 8a 5c 3f 92 33 c9 3f 5f 67 70 3f
       2.2632523 0.86148554 1.5718863 0.9390773
000020 64 0d e6 40 4e ee 83 3f fc 27 bf c0 52 f2 36 40
       7.1891346 1.03071 -5.973631 2.85854
000030 45 fc a4 bf 73 5b 20 40 46 c9 e0 be c2 b8 e3 40
       -1.2889487 2.5055816 -0.4390356 7.1163034
000040 19 b0 cf 3e 9f de 51 40 ef 7b e6 3e 96 a5 46 c1
       0.4056404 3.2792127 0.4501643 -12.415426
000050 75 ce e9 bf 67 e6 49 3f 64 59 fc 3f 86 5a f4 40
       -1.8266131 0.7886719 1.971478 7.63605
000060 f6 71 f2 3e 07 5e 0d c0 ff 8d 5e be 8f fb 0e 41
       0.4735257 -2.208864 -0.21733855 8.936416
000070 12 dd 78 40 e4 0a 16 40 4e 80 80 40 cf 2f 6d c0
       3.888493 2.3444147 4.015662 -3.706043

bn1.running_var f4 [32]
000000 74 4b 05 41 ef fb f9 42 db 06 14 42 28 f3 e1 42
       8.330921 124.99206 37.006695 112.974915
000010 fe a9 4d 42 94 dc a0 41 71 5d 68 42 ba b4 07 42
       51.416008 20.107704 58.09125 33.92649
000020 c7 41 4a 42 f0 09 75 41 a7 2c 9e 42 a2 d9 95 41
       50.564236 15.314926 79.08721 18.731266
000030 3e fa a3 41 ae 33 b1 41 be 1e 8f 40 77 32 1e 42
       20.497189 22.150234 4.4725027 39.549282
000040 1a c1 54 41 ba f6 22 41 3c 70 01 41 73 42 17 43
       13.297144 10.185236 8.089901 151.25957
000050 e3 d1 61 41 01 8d 6e 42 79 08 b8 41 99 c0 0f 42
       14.113742 59.6377 23.004137 35.938084
000060 c2 55 d0 40 cb 14 e0 41 a1 f4 f0 40 c9 94 82 42
       6.5104685 28.010153 7.529862 65.290596
000070 97 45 d0 41 1b b2 ef 40 14 8a b0 41 5a 51 2b 42
       26.03398 7.4904914 22.067421 42.829445

conv2.weight f4 [32, 32, 5, 5]
000000 13 6a 3e 3f e4 44 04 3f d8 99 54 bf 7a 28 d7 bf
       0.74380606 0.5166762 -0.83047247 -1.6809227
000010 8b af 3e c0 f3 12 b7 be 4d 2a 9a bf db 29 96 c0
       -2.9794643 -0.35756645 -1.2044159 -4.6926093
000020 76 a6 95 bf e0 b0 a7 3e 78 ab 3e 3c 1a ab f2 bf
       -1.1691425 0.32752132 0.011637561 -1.8958466
000030 a9 0d 05 bf 83 43 99 3e 50 6b b1 3f 42 bf 95 3f
       -0.5197397 0.2993432 1.3860874 1.1698992
000040 72 09 56 3f 48 71 ca 3e a3 65 f5 3e 84 8f 91 3f
       0.8360816 0.39539552 0.47929105 1.1371922
000050 f0 25 de 3f 99 34 89 3f 94 20 e3 3e f7 6a 2f 3f
       1.7355328 1.0719177 0.44360793 0.6852259
000060 d0 98 0a 3f 20 e4 a5 bd 22 49 88 bf fb d6 9c bf
       0.54139423 -0.08100152 -1.0647318 -1.2253107
000070 4e 9c 84 bf fb 28 e9 be 76 50 8d be bf 82 32 bf
       -1.03602 -0.45539078 -0.2760045 -0.6973075
000080 48 ba 02 bf a5 88 21 3f 7e 69 46 3e 2e 09 13 3f
       -0.5106549 0.6309913 0.1937618 0.5743588
000090 35 3d 38 3f 56 2c df 3f 4c a8 92 3f 3d 9f fb bd
       0.71968395 1.7435405 1.145761 -0.12286232
0000a0 06 a0 60 3f a5 f8 07 3f 62 1b d9 3e 72 4c 3c bf
       0.87744176 0.53113776 0.42403704 -0.73554146
0000b0 07 7c 77 bf 47 07 8f 3f 8a 25 86 3e d3 5c 2f bf
       -0.96673626 1.1174096 0.26200515 -0.68501014
0000c0 d6 c4 d4 bf f4 cf 9e bf 7e 1c 49 3e e7 b0 71 3f
       -1.662257 -1.2407212 0.19639775 0.94410557
0000d0 0a 94 c4 3f c8 c2 4c 3f d9 49 03 c0 b0 7f 5b bf
       1.5357678 0.7998471 -2.0513823 -0.8574171
0000e0 eb 00 9d bf 2c 4d 8f bf 9a cb 5e bd a6 ec 87 3d
       -1.2265905 -1.1195426 -0.05439339 0.06636934
0000f0 51 cd 09 c0 b2 aa 25 c0 ca 8e 86 bf cf bf 88 3e
       -2.1531565 -2.5885434 -1.0512326 0.26708838
000100 51 6c ed 3d 4d 6d 06 bf 1d f5 b7 3c 38 eb 30 40
       0.11592925 -0.5251053 0.022455746 2.7643566
000110 9c 07 0e 40 01 37 e5 3f 55 bf c5 3f 93 2d 0c 3e
       2.2192144 1.7907411 1.5449015 0.1368926
000120 73 d4 42 bf 8b d1 9d bf 48 40 32 bf ed 74 07 3f
       -0.7610542 -1.2329572 -0.69629335 0.5291279
000130 69 b3 5f 3f 24 c1 b3 3f 8a e4 47 3f af 80 ee be
       0.87383133 1.4043317 0.780831 -0.46582553
000140 05 44 9a 3e 69 0f 6c be de 85 06 bf ca 9a f1 be
       0.3013002 -0.23052754 -0.52548015 -0.47188407
000150 cb 68 b7 bd 1f 0e 0d be 29 d9 e2 3d a0 93 74 be
       -0.089555345 -0.13774918 0.11076576 -0.2388444
000160 f0 e4 a8 be 52 10 6d be 11 75 94 3c ee 8f c2 3e
       -0.32987165 -0.23150757 0.018122228 0.38000435
000170 c3 96 16 3f 01 8c 87 be f2 89 0c 3e ba 14 b9 3f
       0.58823794 -0.26474002 0.13724497 1.445945
000180 e2 06 69 3f 94 ac 30 3e be 42 43 be 9e 96 33 3f
       0.9102613 0.17253333 -0.19068429 0.701517
000190 83 69 49 bf f4 43 ae bf 50 e9 b0 bf ee b3 cd bf
       -0.78676623 -1.3614488 -1.3821201 -1.6070535
0001a0 95 5d 81 bf 83 25 8f be 5d c7 5a be a3 89 03 3d
       -1.0106684 -0.27958307 -0.21365114 0.032113682
0001b0 8f 07 a0 3e bc 06 08 bf 3d f8 6d 3f de 49 71 3f
       0.31255767 -0.53135276 0.92956907 0.9425334
0001c0 3f 4f 00 3f 54 53 58 bf 9e ca 9d bf c1 c2 1d 40
       0.5012092 -0.8450215 -1.2327459 2.4650118
0001d0 c2 53 e7 3f 3e 41 2f 3f b5 0f 5d 3f 84 51 85 3f
       1.8072436 0.68458927 0.8635209 1.0415502
0001e0 52 c0 94 3f 1f c4 80 3f 40 58 ae 3e e5 4f 1a bf
       1.1621192 1.0059851 0.34051704 -0.6027816
0001f0 a9 45 d1 3e e6 2b 64 bf 81 7b 01 3f c7 3f 68 3f
       0.4087346 -0.89129484 0.50579077 0.90722317
000200 52 93 22 40 ef 7a 2f 3f 0c 2b b6 be 29 fa 0c 40
       2.5402417 0.68546957 -0.35579717 2.2027686
000210 fa 5e 47 40 d6 a9 0c 40 58 d4 4d bf a3 b8 22 3e
       3.115172 2.197866 -0.80402136 0.15890746
000220 c0 1a 7b 3f 31 db a8 3f f0 07 92 3e c6 fe 25 bf
       0.9808769 1.3191892 0.2852168 -0.6484188
000230 8e 7c 26 3e 84 30 a0 bf 05 d6 28 c0 1b 0b 6e bf
       0.16258451 -1.2514806 -2.6380627 -0.92985696
000240 2b ea cd 3c 98 e1 d8 be 4a 59 d3 bf 55 83 b3 bf
       0.025136074 -0.42359614 -1.6511624 -1.4024454
000250 dc 33 97 bd 9d 40 4d 3f ab 7c 2e bf 82 18 05 3d
       -0.07382938 0.8017672 -0.6815898 0.032494076
000260 35 91 aa 3e 68 0c 3a be e8 4c d3 bf 25 d8 0f 3e
       0.3331391 -0.18168795 -1.6507845 0.14047296
000270 d3 ad 0a 3f 3e 76 aa 3f 57 14 9b 3f c2 4e 27 be
       0.54171485 1.3317335 1.2115582 -0.16338637
000280 3a 97 0f 3f 73 c3 5c 3e b6 1c f5 3e a8 3a 3b 3d
       0.5609013 0.21558933 0.47873467 0.045710236
000290 ca 7e e6 3d d4 ef 0b 3e b2 52 28 be ed d6 51 bf
       0.11254652 0.13665706 -0.16437796 -0.81968576
0002a0 73 f4 6c 3d 28 94 24 bf 35 70 c5 3d 0e 3e cb bd
       0.057850312 -0.6428857 0.096405424 -0.09923945
0002b0 9c 77 13 3f 5b 22 79 bf a1 d3 df 3e d8 70 b6 3f
       0.57604384 -0.9731805 0.43716148 1.4253187
0002c0 b1 51 b8 3f 4c b2 b9 3f 18 c2 54 bf 95 1e 0c bf
       1.439993 1.4507537 -0.83108664 -0.54734164
0002d0 ce 30 08 3f c1 d0 76 3e e5 60 c5 3e 74 eb 83 bf
       0.5319947 0.24103071 0.38550487 -1.030623
0002e0 e3 7d 0e c0 27 af 79 bf 3f 53 3b be 0e fe a8 3e
       -2.2264335 -0.97532886 -0.18293475 0.33006328
0002f0 a8 a6 67 3f 88 c4 0d bf c5 5c d8 bf 76 75 ea be
       0.9048867 -0.5537801 -1.6903311 -0.4579274
000300 55 3a 75 be c0 72 9b 3e 9a f4 9d bf 4d ef 7e bf
       -0.23948033 0.30360985 -1.2340271 -0.99583894
000310 3f 84 47 bf 4e 49 57 bf 37 42 1e bf 86 8a 69 bf
       -0.77936167 -0.8409623 -0.61819786 -0.91226995
000320 89 50 7b be 57 81 b5 bf ff 38 c1 bf 94 9f 58 3f
       -0.2454244 -1.4180096 -1.5095519 0.84618497
000330 e1 5d f1 3f 8b b5 05 be 1a 7d 97 be 58 f3 68 be
       1.8856775 -0.13057534 -0.29587632 -0.22749078
000340 4e 1d c7 3f 44 a1 bb 3f fc a3 df 3f 41 35 a7 3f
       1.5555818 1.4658589 1.7471919 1.3063127
000350 b4 5d ca 3f 0b 0c 7d 3f 2b d4 89 be 15 aa eb 3f
       1.5809846 0.988465 -0.26919684 1.841128
000360 ab f5 0a be d7 f7 79 bf 76 f6 e3 bf 53 33 2b bf
       -0.13570277 -0.976438 -1.7809589 -0.6687519
000370 64 b4 f1 3f 0a fb db be b5 cc 67 bf 3d 31 1c 3f
       1.8883176 -0.42964965 -0.90546733 0.6101263
000380 c2 45 21 3e 63 ad fa be c5 1d 78 bf 16 29 1e be
       0.15749267 -0.4896041 -0.96920425 -0.1544536
000390 0d fc 69 be d8 fc 8b bf 38 9c af bf 7d 9e 19 c0
       -0.22850056 -1.0936537 -1.3719549 -2.4002984
0003a0 42 49 bf bf 22 65 d7 be 93 b9 45 bf 01 35 73 bd
       -1.4944232 -0.42069346 -0.7723629 -0.05937672
0003b0 68 30 d1 bf a4 b4 15 3f d0 ba 0c 40 73 9c 49 3f
       -1.6342897 0.5847876 2.1989021 0.7875435
0003c0 17 5b 88 3e a9 69 40 be a3 15 38 3f 82 ec 8f 3f
       0.26631996 -0.18790306 0.71908015 1.1244051
0003d0 49 92 1c 3f fe 30 a7 3f f5 62 85 be c8 11 2c bf
       0.61160713 1.3061826 -0.2605206 -0.6721463
0003e0 23 ad 8a 3e ef a6 f5 bd 8c c2 75 bf 59 81 b8 bf
       0.27085218 -0.11994731 -0.9599998 -1.4414474
0003f0 43 bf 9a bf 71 ea 86 be a0 4e 99 3f 0f 63 82 bf
       -1.2089618 -0.2635074 1.197712 -1.018648

conv2.bias f4 [32]
000000 d5 e0 19 3c bc b4 69 bd b7 86 85 bd 11 0d 93 bc
       0.009391983 -0.057057127 -0.065198354 -0.017950566
000010 9f f9 04 bd bd 15 b2 bc ef 6f 87 3c 52 c7 bd bc
       -0.03246462 -0.021738881 0.016532866 -0.023166332
000020 71 c0 66 3b 44 f8 33 3d 72 78 2c bd 31 00 3d 3c
       0.003520992 0.043937936 -0.042107053 0.01153569
000030 8f 9b 75 bb 12 9b a7 3b 71 a3 3b bd b9 90 91 3c
       -0.0037476753 0.0051149214 -0.045810167 0.017769204
000040 c7 03 3f 3d 46 77 a9 bc 7a a3 f2 3c 5d 12 06 3c
       0.04663446 -0.020686757 0.029618967 0.008183089
000050 f5 6c a4 bc ec b0 7f bd c4 14 10 bd 17 ef 20 3d
       -0.020071486 -0.062424585 -0.035176054 0.039290514
000060 d0 d1 01 bc 80 d4 c6 3c 5f 2e c9 ba f6 79 15 3c
       -0.007923558 0.02427125 -0.0015348903 0.009123316
000070 a5 14 92 3c ac 76 46 3c 6d a5 30 bd 24 b9 74 bb
       0.01783211 0.0121132545 -0.043126512 -0.0037341798

bn2.weight f4 [32]
000000 85 3d 15 40 ea bd a7 3f 7c 07 a4 3f 5c f3 85 3f
       2.3318799 1.3104832 1.2814784 1.0464892
000010 da 75 eb 3f 11 21 0f 40 06 8e 05 40 24 fc 4a 3f
       1.839534 2.2363932 2.0867934 0.79290986
000020 58 4d 2f 40 23 e8 cb 3f 74 76 16 40 a1 6f 85 3f
       2.7390957 1.5930218 2.3509798 1.0424691
000030 18 27 ca 3f 7a 93 72 3f d8 72 f6 3f d2 cb da 3f
       1.579318 0.9475628 1.9253798 1.7093451
000040 f1 42 cc 3f 7c 46 a9 3f b1 d0 22 40 ce 90 0e 40
       1.5957929 1.3224635 2.5439875 2.2275882
000050 6e 4f 1b 3f 1b eb 10 40 aa af e0 3f b5 e9 fd 3f
       0.60668075 2.2643497 1.7553608 1.9836947
000060 5e cb 0a 40 7d 33 2e 40 5e b5 d4 3f 06 b4 c7 3f
       2.1686625 2.7218926 1.6617849 1.5601814
000070 1e 6c f9 3f 26 69 c7 3f aa d4 64 3f 1f 34 8c 3f
       1.948612 1.5578964 0.89387 1.0953406

bn2.bias f4 [32]
000000 7b 5c c5 bf 85 6a 84 bf 47 fd 8d bf 34 03 86 bf
       -1.5418848 -1.0345007 -1.1092919 -1.0469728
000010 6a 40 85 bf cb 3e b1 bf 41 d4 10 c0 08 bf 74 bf
       -1.0410283 -1.3847288 -2.262955 -0.9560399
000020 ca d8 dc bf 2d 03 94 bf 20 91 62 bf 4e f4 49 bf
       -1.7253659 -1.1563469 -0.88502693 -0.78888404
000030 69 e2 d4 bf 8f c6 f4 be 14 78 fd bf 95 19 d2 bf
       -1.6631595 -0.47807738 -1.980227 -1.6414057
000040 53 8d 98 bf 1b b3 8a bf 20 43 c6 bf 5e bc af bf
       -1.1918129 -1.0835909 -1.5489235 -1.372936
000050 18 af 9f bf e5 fa 86 bf 84 ab 08 c0 fb 9c 64 bf
       -1.2475309 -1.0545317 -2.1354685 -0.89302033
000060 f8 97 a0 bf 73 31 a8 bf 4c 76 ab bf ae 28 70 bf
       -1.2546377 -1.3140091 -1.3395476 -0.9381207
000070 f9 28 2a bf 80 9c 9a bf fb fd 4e bf b1 27 e9 bf
       -0.6646877 -1.207901 -0.80856293 -1.8215238

bn2.running_mean f4 [32]
000000 bf 2b fc 3f 30 c0 57 c1 f4 28 02 42 c8 7e 8b c2
       1.970085 -13.484421 32.539993 -69.74762
000010 68 de 68 c2 cb 3a c6 c1 2c cd 34 c2 0b 72 d0 c2
       -58.217194 -24.778708 -45.200363 -104.22274
000020 bd 8f a0 c1 44 1b 06 42 90 2c 3b 41 69 86 d3 c1
       -20.070185 33.526627 11.6983795 -26.44063
000030 a4 01 11 40 50 61 76 41 bb a8 b6 c2 79 6b 42 c2
       2.2657251 15.398758 -91.32955 -48.604954
000040 31 4d ab c2 05 ea 19 c2 3d fe 45 c1 4b 10 dc c1
       -85.650764 -38.478535 -12.37457 -27.507956
000050 d9 70 de c1 44 b6 e1 c0 29 11 89 c0 d0 4e 8e c2
       -27.805101 -7.053499 -4.2833447 -71.15393
000060 5d b8 0b c2 eb c2 82 40 f6 b1 4e 41 2c dd 86 c1
       -34.930042 4.0862937 12.9184475 -16.857994
000070 7b aa a5 c2 99 27 7c c2 66 19 4f c2 bc e0 5c c2
       -82.83297 -63.03867 -51.774803 -55.219467

bn2.running_var f4 [32]
000000 28 e4 e6 44 a7 f5 33 45 2e 15 55 45 84 94 36 45
       1847.1299 2879.3533 3409.3237 2921.2822
000010 e3 90 24 45 45 a6 4b 45 bd 92 e3 44 84 23 0b 45
       2633.0554 3258.3918 1820.5856 2226.2197
000020 ed 12 d2 44 17 9e 1e 45 b8 9c 1e 45 4e 63 23 45
       1680.5914 2537.8806 2537.795 2614.2065
000030 9d 29 03 45 49 d8 6f 45 2b 2f b4 44 50 7a d0 44
       2098.6008 3837.5178 1441.474 1667.8223
000040 0d e4 f4 44 19 f2 e2 44 19 e2 0b 45 70 c7 f3 44
       1959.1266 1815.5656 2238.131 1950.2324
000050 35 7d f5 44 63 11 4c 45 61 d1 ef 44 ae 12 2e 45
       1963.9127 3265.0867 1918.5431 2785.1675
000060 6b 5d 17 45 99 1b 33 45 89 71 de 44 8f 55 22 45
       2421.8386 2865.7249 1779.548 2597.3474
000070 07 61 16 45 26 25 63 45 8c ea 09 45 94 b2 e4 44
       2406.0642 3634.3218 2206.6592 1829.5806

conv3.weight f4 [64, 32, 5, 5]
000000 30 d7 eb bf 5f 58 5b 3e dc e7 9e 3e b2 61 66 3e
       -1.8425045 0.2142043 0.3103627 0.22498205
000010 a5 60 a1 3e 3f c4 79 bf 95 4e a3 3f ac c4 96 3f
       0.31519046 -0.9756507 1.2758356 1.177877
000020 5b ec bd bf 54 6c ac bf 85 68 9e 3e d7 b5 a2 3d
       -1.4837755 -1.3470559 0.30939117 0.079448394
000030 17 e4 2b c0 67 0b 5a c0 85 96 70 be 01 e6 87 be
       -2.6857965 -3.406946 -0.23494919 -0.26542667
000040 5e 00 55 bf 98 6b e9 bf 13 6c 5b 40 36 cb 1f 3f
       -0.83203685 -1.823596 3.4284713 0.6241945
000050 fd bb 5a c0 01 e0 cb be da e0 d9 be 4b d6 f8 be
       -3.417724 -0.3981934 -0.4255436 -0.48600993
000060 87 45 7b 3f d2 ef 47 bf e2 c4 2a 3f 48 04 48 3e
       0.98152965 -0.7810031 0.6670667 0.19532883
000070 72 d5 9f bd bb 2d 5b be 00 94 10 be 07 3b cf 3f
       -0.07804383 -0.21404164 -0.14118958 1.6189889
000080 6d 7d 10 3f cc 40 29 3c 78 41 05 c0 c7 e4 47 3f
       0.56441385 0.01033039 -2.082121 0.7808346
000090 c4 4d cc 3f 54 0a fa be 02 b1 3e 3f 17 f8 29 c0
       1.5961232 -0.48836005 0.7448884 -2.6557672
0000a0 87 62 71 3f 58 de 87 be 93 83 0d c0 77 b0 99 3f
       0.94290966 -0.26536822 -2.2111557 1.2006978
0000b0 31 f5 64 3f 5e 3a cd bf 97 ba ba bf a0 32 7d be
       0.8943663 -1.6033437 -1.4588193 -0.24726343
0000c0 6f 8b cc 3f 62 81 c7 3f d1 9d 0d 40 c5 9f 8f 3f
       1.5980052 1.558636 2.2127573 1.1220633
0000d0 20 f1 a8 be 9e f3 81 be 0e 19 92 be 49 7a 4c 40
       -0.32996464 -0.25381178 -0.2853474 3.1949637
0000e0 ec ff c4 3e b3 42 03 c0 24 99 a7 bf 5e 8e 17 bf
       0.38476503 -2.050946 -1.309361 -0.5920161
0000f0 96 db 1e 40 d7 96 d9 be 30 7d 2c c0 ae bf ec be
       2.4821525 -0.42497894 -2.6951408 -0.4623999
000100 20 46 02 bf 22 6a c4 3f a6 73 6e bf 8a a7 20 c0
       -0.5088825 1.5344889 -0.93145216 -2.5102258
000110 be 71 a9 3f 8d 8a 3c bf 2f a3 c0 3f c9 17 85 bf
       1.3237836 -0.7364891 1.50498 -1.0397884
000120 07 93 1e 3f 7d 0f 95 be 49 31 e2 bf 8f 3e 47 3f
       0.61943096 -0.2911338 -1.7671291 0.7782983
000130 5c b1 f5 3f 29 a1 e2 bf 3f 39 1d bf 89 eb af bf
       1.9194751 -1.7705432 -0.61415476 -1.3743755
000140 07 a2 c3 be 83 54 42 40 db 13 c0 3e da 85 e1 be
       -0.38209555 3.0364082 0.3751515 -0.44047433
000150 b5 2d 7d bf 33 9d a0 bf 6a 16 05 40 4a 59 ef 3d
       -0.9889787 -1.2547973 2.079493 0.116869524
000160 36 f8 36 3f 22 2c 27 3f fa ff 9d 3e af ee 46 3f
       0.7147249 0.65301716 0.30859357 0.7770795
000170 32 4a b5 bf 3c 8e 8e bf 7f 38 0a c0 4d f5 d7 bf
       -1.4163268 -1.1137156 -2.1596982 -1.6871735
000180 36 c1 cc 3e 6b bf f3 3e 62 99 e3 3f e9 e1 66 bd
       0.39991158 0.47606978 1.7781184 -0.05636779
000190 c2 2e 8a bf 71 77 6f 3f d6 60 0b 3f 1d 12 80 bd
       -1.0795519 0.9354163 0.54444635 -0.06253455
0001a0 5c 1c 84 39 fb 24 c2 bf 7e 66 3f be 1a 82 12 bf
       0.0002519813 -1.5167536 -0.18691441 -0.5722977
0001b0 0c 67 fd bf 29 ff 30 c0 eb 14 f5 bf 0e e7 a3 bf
       -1.9797072 -2.7655737 -1.9147009 -1.2804887
0001c0 41 bf fc 37 cb d6 b6 bf 4d 32 74 bf 73 10 f0 bf
       3.01298e-05 -1.42843 -0.9538925 -1.875502
0001d0 bd 12 8c bf ad d2 84 3f 00 91 a9 3f 50 24 3f 3f
       -1.0943218 1.0376793 1.3247375 0.74664783
0001e0 6b 42 12 c0 48 54 a5 bf ae 77 3b bf 61 6a 0f 40
       -2.2853038 -1.2916346 -0.7322949 2.2408679
0001f0 0e e7 9a bf 75 43 f7 3f e2 c7 0f c0 bc e4 9f 3e
       -1.2101762 1.9317461 -2.2465749 0.31229198
000200 a6 25 19 c0 47 8c 05 c0 c8 b0 e1 be b3 9d b2 be
       -2.3929229 -2.0866868 -0.44080186 -0.3488594
000210 e3 13 44 c0 ec 3c 08 c0 91 a5 d4 be 8c f3 f7 bf
       -3.0637138 -2.1287184 -0.41532567 -1.93712
000220 6c 72 25 3e 48 d3 26 c0 2c aa 33 bf 8a 17 8a 3f
       0.1615693 -2.6066456 -0.70181537 1.0788434
000230 85 25 35 bf c2 de 8c 3f fa b5 8a be d3 53 73 3e
       -0.70760375 1.100548 -0.27091962 0.23762445
000240 7e d9 59 3f a7 8a 91 bf f0 b6 0a bf 27 ff dd bf
       0.8509749 -1.1370438 -0.5418539 -1.7343491
000250 4a 0b cb 3e 05 e0 db 3f 86 d1 8f bf 74 64 a0 bf
       0.3965705 1.717774 -1.1235816 -1.2530656
000260 2c 2b d5 3d 41 6c 92 3f a2 8f 27 bc 83 2e 0e 40
       0.10408625 1.1439286 -0.010227116 2.2215889
000270 ee a8 00 bf 76 a5 2a bf e3 84 af 3f 87 d0 2d 3f
       -0.50257766 -0.66658723 1.3712429 0.6789631
000280 79 51 fe 3e 16 50 9a 3f 48 fb a8 bf c1 56 78 be
       0.49671534 1.205569 -1.3201685 -0.24251844
000290 87 cb 43 3f 09 95 45 bf 5f 74 95 bc 82 67 6b bf
       0.76482433 -0.77180535 -0.018243967 -0.91954815
0002a0 9d 13 53 bf 30 8a b0 bf 36 90 76 bf 9d 29 1d 3f
       -0.824518 -1.3792171 -0.963138 0.6139162
0002b0 76 7e 86 be 3e 7a 84 bf dd e9 19 c0 69 7a 33 bf
       -0.26268357 -1.0349805 -2.404899 -0.7010866
0002c0 7f ae ba bf 23 cc 78 bf 50 21 80 bc 8a 2f 68 3e
       -1.4584502 -0.9718649 -0.015640885 0.22674385
0002d0 e3 a8 b6 bf 88 01 48 bf 9e 0f 7d 3f 48 dc 48 3e
       -1.427029 -0.78127337 0.98851955 0.1961528
0002e0 f7 c7 ba bf 0b b7 27 bf 1b c5 e3 3d cc b2 37 3f
       -1.4592274 -0.65513676 0.11121579 0.717572
0002f0 ec 69 54 bf f2 01 8a bf 65 20 d4 be 6c 5f 44 3f
       -0.82974124 -1.0781844 -0.41430965 0.767081
000300 34 df a0 3f 2e 69 9d bf 12 87 bf be 98 89 86 be
       1.2568116 -1.2297723 -0.37407738 -0.2627685
000310 df 44 c9 3d 10 ea f4 3d 87 fc e1 bf 2d 4d 33 bf
       0.09827589 0.119587064 -1.765519 -0.70039636
000320 0b 16 df 3e 34 0b f1 3d 3f e5 10 bf 83 37 9c bc
       0.43571505 0.11769715 -0.565998 -0.019069439
000330 19 c7 7b 3f e5 23 86 3e 8d bc cf 3f db e1 d3 3e
       0.98350674 0.2619926 1.6229416 0.41383252
000340 1b 61 cb 3e e3 a4 b5 3d ad c1 cf bf 7d 46 bc bf
       0.39722523 0.0886934 -1.623098 -1.4709011
000350 e7 5a fb 3e 2c 0d 88 be b3 c7 10 3e 0c c0 bf 3f
       0.4909279 -0.2657255 0.14138679 1.4980483
000360 df 11 29 c0 e8 35 86 bf d2 65 37 40 10 0e 74 3e
       -2.6417158 -1.0485201 2.8655896 0.2383349
000370 51 a9 92 bf 1f a3 1a c0 15 97 11 c0 35 51 66 3e
       -1.1457921 -2.4162061 -2.2748463 0.22491916
000380 40 9a 94 3e c2 c3 db bf a1 2e b9 3e 68 44 97 3f
       0.29023933 -1.7169116 0.36168388 1.1817751
000390 b6 7e f9 3e 99 7e 6f 3f f0 05 bc 3d 68 c2 25 bd
       0.48729485 0.9355255 0.0918082 -0.040468603
0003a0 a2 db d5 3e 7b 4f 43 bf 4e a6 84 3f ca d5 58 3e
       0.4176913 -0.7629315 1.0363252 0.21175304
0003b0 81 ab 6a bf fd 16 3e bf ce 4d 31 c0 a4 8f 56 bd
       -0.91667944 -0.7425383 -2.7703738 -0.05238308
0003c0 9b 74 9e 3d a5 62 c1 be 4f c5 8e 3e 23 f5 17 40
       0.077370845 -0.37770572 0.2788491 2.374337
0003d0 a2 99 d1 bd 3a c1 5b bf 19 e3 2c be f5 38 74 3c
       -0.10234381 -0.85841715 -0.16883506 0.014906158
0003e0 01 93 fe bf a1 aa 85 bd 50 e4 81 bf b2 04 06 40
       -1.9888612 -0.065266855 -1.01478 2.0940366
0003f0 39 2a 1f 3f f6 55 c0 3f 6b e5 1d bf 53 16 50 3f
       0.621738 1.5026233 -0.6167819 0.81284064

conv3.bias f4 [64]
000000 a7 7a 4b 3d 6e e6 be bc 64 f8 06 3d f9 50 b2 bc
       0.049677517 -0.023303237 0.032951728 -0.021767126
000010 a7 ed 1d 3c 30 d5 1a bd 29 64 19 3c 38 46 1d bd
       0.00963918 -0.037800968 0.009362259 -0.038397044
000020 9d a6 3a 3d 7e e2 26 3c d5 48 ce bc fb 99 a1 bc
       0.04556905 0.010185836 -0.025181213 -0.019726744
000030 ee b4 4c 3d f6 c9 5a bb c8 ac 48 bc 25 52 b3 3c
       0.049977235 -0.0033384538 -0.0122482255 0.021889756
000040 fe a0 93 bc 72 38 90 3c a1 40 8f 3a 49 ac d1 3c
       -0.018021103 0.01760504 0.0010929295 0.025594847
000050 48 6a 5f bd ae e1 a0 3c 0c 1b 35 3d 0c 2c 6e 3b
       -0.054544717 0.019638862 0.044215247 0.0036342172
000060 7e ea 64 bd cb c2 24 bc 54 4e 60 3c 68 f2 11 3c
       -0.05588769 -0.010056208 0.01369055 0.008907892
000070 55 89 44 bc 01 56 05 3d be af 6c bc d6 9c b1 3c
       -0.011995633 0.032552723 -0.014446197 0.02168123
000080 b6 0b 6a 3c c1 5c 9d bb e4 35 93 bc 84 01 5d bc
       0.014285019 -0.004802317 -0.017970033 -0.013489131
000090 94 17 f1 bb 37 6e e0 3c 9c 8c 25 bd a3 d4 f5 3b
       -0.007357547 0.027396305 -0.0404173 0.007502155
0000a0 f9 0e 40 3c 47 65 87 bc f7 ac 43 bc 2d db 4f 3c
       0.01172232 -0.016527785 -0.0119430935 0.012686533
0000b0 71 9c 30 bc c6 17 13 bb 39 bf 0b 3d 89 85 03 3c
       -0.010779486 -0.002244459 0.03411791 0.008027443
0000c0 59 81 7a 3b 58 ff 54 bc 25 b3 00 bc 5f 22 04 3d
       0.003822407 -0.013000332 -0.007855211 0.03225934
0000d0 5e 26 52 3c e3 88 47 ba 58 e4 8a 3c 48 0c 43 3d
       0.01282653 -0.0007611645 0.016954586 0.047619134
0000e0 32 85 dd 3c 87 e6 19 3d 56 41 17 bd 04 38 18 3c
       0.027041052 0.037573364 -0.036927544 0.009290699
0000f0 92 4a 33 bd b9 90 93 3c 71 52 17 3d 18 9a 17 bb
       -0.043772288 0.018013345 0.036943857 -0.0023132619

bn3.weight f4 [64]
000000 ca 3f 0d 40 a3 7d bb 3f 60 71 40 3e 1d b1 1c 40
       2.2070184 1.4647716 0.18793249 2.4483101
000010 89 30 92 3f 09 a9 4b 3e 09 11 c7 3f b6 5d 0d 40
       1.1421062 0.198887 1.5552074 2.2088447
000020 d2 e6 ff 3f 79 12 e6 3f b6 2b e8 3f ae 71 b2 3f
       1.9992316 1.7974387 1.813834 1.3940942
000030 da e1 f8 3f 9a 21 22 40 dc 1f 71 3e a2 c9 9a 3f
       1.9443924 2.5333009 0.2354731 1.2092783
000040 87 22 6a 3e cc a2 a2 3f 70 62 09 40 b3 22 f7 3f
       0.22864734 1.2705932 2.1466331 1.9307464
000050 b8 40 e6 3f 8c bf fa 3f c2 f9 ac 3f 2c a0 08 40
       1.79885 1.9589705 1.351372 2.134776
000060 b6 11 9b 3f 9a db d3 3f 64 f6 12 40 23 6e cb 3f
       1.211478 1.6551392 2.2962885 1.5892986
000070 a4 2e d5 3f df 1e ec 3f 13 30 b7 3f 3e df d6 3f
       1.6654859 1.8446921 1.4311546 1.6786878
000080 a4 fa eb 3f 98 d5 36 3d f8 1e ba 3f 68 b3 1b 40
       1.8435864 0.044637293 1.4540701 2.432825
000090 04 3e 29 40 18 9f d0 3f a5 83 00 40 63 ec 90 3f
       2.6444101 1.6298552 2.008035 1.132214
0000a0 02 f3 2c 40 9e 98 0d 40 bf f7 fd 3f 61 aa 07 40
       2.702332 2.21244 1.9841231 2.119774
0000b0 8c f7 9c 3f e5 f5 20 40 8e b3 9a 3f ad a6 8f 3f
       1.2263045 2.5150082 1.2086046 1.122274
0000c0 16 44 08 40 99 35 16 40 90 aa be 3f b2 f7 ed 3f
       2.1291556 2.3470213 1.4895802 1.8591216
0000d0 d6 c1 0e 40 94 9a fe 3f 0b 05 23 40 be 03 e8 3f
       2.2305808 1.9890924 2.5471828 1.8126142
0000e0 91 29 b3 3f 00 60 a6 3f b9 76 54 3f 1a 5d f7 3f
       1.399706 1.2998047 0.82993656 1.9325287
0000f0 86 e6 f6 3f 4c db 20 40 f2 0c 1e 40 dd 8c 0d 40
       1.92891 2.5133848 2.46954 2.2117226

bn3.bias f4 [64]
000000 e7 84 95 bf 92 a0 d1 bf 91 b8 67 bf 09 73 56 bf
       -1.1681184 -1.6377127 -0.90516 -0.8376928
000010 94 50 9e bf 73 5e 5a bf 6e 4f 90 bf 14 fc a4 bf
       -1.236834 -0.8530037 -1.127424 -1.2889428
000020 ca e3 88 bf 45 a8 50 bf e4 35 88 bf 35 88 90 bf
       -1.0694516 -0.8150676 -1.0641446 -1.1291567
000030 eb 3c 8b bf 64 fb d1 bf 3a a5 c0 bf 4b 5a a0 bf
       -1.0877966 -1.6404843 -1.5050423 -1.2527555
000040 4c 47 8c bf 29 72 b7 bf bd c8 6a bf 61 8c 83 bf
       -1.0959258 -1.4331714 -0.9171255 -1.0277215
000050 e3 cb 22 bf 87 63 81 bf 9c 39 51 bf 80 43 9b bf
       -0.63592356 -1.0108498 -0.8172853 -1.2129974
000060 60 3b 46 bf 18 90 89 bf 00 f9 92 bf 3b cd 20 bf
       -0.7743435 -1.0747099 -1.1482239 -0.62813157
000070 d2 ce 8e bf e2 32 8b bf 25 6d 39 bf a8 fa d8 bf
       -1.1156867 -1.0874903 -0.72432166 -1.6951494
000080 c2 c0 bc bf 32 77 1c bf aa ec 68 bf bf 03 e9 be
       -1.4746325 -0.6111938 -0.9098612 -0.4551067
000090 a5 5d ed bf 04 26 0c be 4e 7f 9b bf ef 77 d7 be
       -1.8544203 -0.13686377 -1.2148225 -0.4208369
0000a0 6a fe 38 bf d2 ec 64 bf f9 09 55 be 55 be 87 bf
       -0.72263205 -0.8942386 -0.20804586 -1.060496
0000b0 f8 b7 fd bf 29 7f bb bf 1e 71 4b bf df 2f 19 bf
       -1.9821768 -1.4648181 -0.7946948 -0.5983867
0000c0 41 15 bc bf e6 2a df 3d 04 02 81 bf 1b d0 95 bf
       -1.4693986 0.10896854 -1.007874 -1.1704134
0000d0 d8 47 5a bf f8 b4 46 bf b9 1a f4 bf c4 24 a0 bf
       -0.85265875 -0.77619886 -1.9070655 -1.251122
0000e0 24 71 45 bf 4b 50 3a bf c5 0f aa bf 22 1d a1 bf
       -0.77125764 -0.7277877 -1.3286062 -1.2587016
0000f0 c8 82 c7 bf 30 d4 4b bf 62 8c 83 bf 38 e7 b7 bf
       -1.5586786 -0.7962065 -1.0277216 -1.4367437

bn3.running_mean f4 [64]
000000 91 1a f4 c1 60 8e 1c c1 d0 ea e7 c1 5a 56 ed c1
       -30.512972 -9.7847595 -28.989655 -29.667164
000010 d8 b6 10 c2 d3 89 f8 c1 2b 51 1c c2 b5 e8 a9 c1
       -36.17856 -31.067297 -39.079266 -21.238626
000020 91 58 d2 c0 59 16 43 c1 ea 1e 0e c2 da 22 c7 c1
       -6.5733113 -12.192956 -35.53019 -24.892017
000030 75 69 69 c1 9e 7d ac c1 7a 78 4c c1 c6 69 83 3f
       -14.588246 -21.561337 -12.779413 1.0266654
000040 ae a7 64 c1 31 61 a4 c1 a2 54 d3 c1 6c ea b5 c1
       -14.290937 -20.547457 -26.416325 -22.739464
000050 39 4a bf c1 c7 26 2b c2 69 2d 98 c1 16 d6 9b c1
       -23.911242 -42.78787 -19.022173 -19.479534
000060 12 d4 12 c2 84 71 01 c2 00 31 ba c1 e6 74 32 c1
       -36.7071 -32.360855 -23.273926 -11.15354
000070 d1 00 b1 c0 2f 88 d1 c1 f5 f3 c9 c1 ed 60 d3 c1
       -5.5313497 -26.191496 -25.24412 -26.422327
000080 5c 8b c1 c1 1a 61 94 c1 ca 82 ff c1 00 01 c1 c1
       -24.193047 -18.547413 -31.938862 -24.125488
000090 be c8 8e c1 50 b3 bd c1 57 8b d3 c1 e8 12 47 c2
       -17.848019 -23.712555 -26.443037 -49.768463
0000a0 6d 0e b0 c1 c4 a2 19 c2 66 26 68 c1 f2 d5 9d c1
       -22.007044 -38.40895 -14.509375 -19.729465
0000b0 7e 78 1f c1 93 a7 93 bf 25 17 21 c1 cd 37 a1 c1
       -9.966917 -1.1535515 -10.0681505 -20.152246
0000c0 73 4b 6e c1 c3 a4 f6 c1 1e 67 db c1 f2 aa 49 c1
       -14.89342 -30.83045 -27.42535 -12.604235
0000d0 86 50 82 c1 bc 32 00 c2 89 da ea c0 27 e9 8c c0
       -16.289318 -32.049545 -7.3391767 -4.403461
0000e0 02 b7 ed c1 05 d3 8a c1 3b 37 26 c1 84 c4 a6 c1
       -29.71436 -17.353037 -10.388484 -20.845955
0000f0 42 dc 80 c1 22 52 9a c1 bc b2 74 c1 a5 d7 b4 c1
       -16.107548 -19.290104 -15.293636 -22.605295

bn3.running_var f4 [64]
000000 0f a2 6b 44 c0 7e 1c 44 49 83 82 44 b5 5b 49 44
       942.53217 625.98047 1044.1027 805.4329
000010 31 fd 53 44 9d dc 0d 44 3e 18 82 44 4e 22 48 44
       847.9561 567.4471 1040.7576 800.536
000020 e2 1f 30 44 fd 59 8b 44 55 b8 94 44 19 25 68 44
       704.49817 1114.8121 1189.7604 928.57965
000030 d0 41 28 44 c6 92 2c 44 03 aa 13 44 d3 e5 6e 44
       673.0283 690.29333 590.65643 955.591
000040 83 ee 04 44 7f 49 2c 44 d4 7f 6d 44 3b 47 58 44
       531.72675 689.1484 949.9973 865.113
000050 b9 84 57 44 0e f2 b1 44 5a fe 44 44 87 d9 80 44
       862.0738 1423.5642 787.97424 1030.7977
000060 1b c0 93 44 c6 a8 73 44 9e 95 52 44 1b 4f 3c 44
       1182.0033 974.6371 842.33777 753.236
000070 1d b1 2d 44 92 37 52 44 f5 d8 40 44 37 53 57 44
       694.7674 840.8683 771.38995 861.30023
000080 37 3b 47 44 c3 e6 db 43 2b 54 86 44 a7 c2 8b 44
       796.92523 439.80283 1074.6302 1118.0829
000090 64 c2 51 44 96 d0 69 44 92 de 2f 44 03 4d cd 44
       839.03735 935.25916 703.47766 1642.4066
0000a0 ae 46 80 44 6e 56 8d 44 66 01 af 44 e9 5a 83 44
       1026.2087 1130.7009 1400.0437 1050.841
0000b0 6d be 1c 44 b3 61 48 44 73 99 30 44 a7 2e 5d 44
       626.9754 801.52655 706.39764 884.72894
0000c0 5d db 35 44 27 f7 dc 44 eb d3 84 44 ec 1a 34 44
       727.42755 1767.7235 1062.6224 720.42065
0000d0 1c 9c 33 44 63 b3 87 44 88 a7 4d 44 3a 23 27 44
       718.4392 1085.6058 822.6177 668.5504
0000e0 87 25 a9 44 aa 75 60 44 48 3c 38 44 2e 33 35 44
       1353.1727 897.8385 736.9419 724.7997
0000f0 6c c9 32 44 35 00 70 44 98 62 6e 44 d9 79 6f 44
       715.1472 960.00323 953.5405 957.9039

linear1.weight f4 [64, 576]
000000 56 ae 54 40 ae 84 9b 3f 69 94 08 40 73 02 a1 3e
       3.3231406 1.2149866 2.1340582 0.3144718
000010 e2 20 74 bf 03 f6 a7 3f 07 4d 51 3f a1 9b a5 3e
       -0.95362675 1.3121952 0.8175816 0.32345298
000020 63 a1 83 3f 69 68 f3 3e ad af 14 bf 9f 2e 94 3e
       1.0283626 0.47540596 -0.5808056 0.2894182
000030 d5 c8 f1 3e ab 96 3d bf fd 80 30 40 d6 e1 c8 bf
       0.47223535 -0.74058026 2.7578728 -1.569392
000040 c2 d3 d3 3f 45 b7 58 3f 3b 23 06 3f bc a7 75 3f
       1.6548998 0.8465465 0.5239751 0.9595907
000050 d4 9d 9d bf 99 fa b7 3e 0c d9 44 3f 4e 5f 0e bf
       -1.231379 0.35933378 0.7689369 -0.55614173
000060 b4 54 b7 bf 1c 17 fb 3f 6d 62 84 3f e2 7b 84 bf
       -1.4322724 1.9616427 1.0342537 -1.0350306
000070 99 9c 98 bf ad a4 77 40 c6 53 2a bf 1a 42 cb 3f
       -1.192279 3.869426 -0.6653408 1.5879548
000080 f6 ff 9d 3f 19 66 d9 3f a7 54 94 3f 16 e7 f6 bf
       1.2343738 1.6984283 1.1588334 -1.9289272
000090 ee de a0 bd e1 34 6e 3e 7f 62 06 40 a6 7a 4b bf
       -0.078550205 0.23262359 2.0997617 -0.7948402
0000a0 4c 8f 36 bf 4f 18 06 40 c7 f3 6e 3f ab bc ec bf
       -0.71312404 2.0952337 0.93340725 -1.8495077
0000b0 95 a8 2c bf 77 8c f0 3e ea 2e a4 3f 3a f3 ea be
       -0.67444736 0.46982166 1.2826817 -0.45888692
0000c0 77 ae 98 be 9d 36 d9 3e 08 23 56 3e 62 2c 6c bf
       -0.29820606 0.4242448 0.20911801 -0.9225522
0000d0 cf 43 41 bf bd 09 9c be 1d 35 3c 3f 7d 8f ab be
       -0.7549409 -0.3047618 0.73518544 -0.3350791
0000e0 e9 43 67 3f 50 d8 14 bd c8 64 89 3f 3e 3c 1e 3f
       0.90338 -0.036339104 1.0733881 0.6181067
0000f0 48 0a dc 3f a1 ba a1 3e f5 1f 82 3f eb 84 42 bf
       1.7190638 0.315877 1.0166003 -0.75984067
000100 4b e5 75 bd 05 f6 af bd 4b 74 14 3f 2e 8d aa 3f
       -0.060033124 -0.085918464 0.5798995 1.3324335
000110 27 af c3 3f 82 3e 9e 3f dc fc da bf 5a 10 c9 3f
       1.5287827 1.2362826 -1.7108417 1.5708115
000120 97 d5 9f bf 5c f0 03 40 c3 5f 0b bf ac d6 90 3e
       -1.2487057 2.0615454 -0.54442996 0.28288782
000130 a1 f4 98 bf 3a 47 9d bf a4 0c 91 3e 82 35 68 bf
       -1.1949655 -1.2287362 0.28329957 -0.90706646
000140 da a8 b2 3e 5d 38 46 bf 01 21 be 3f f8 63 02 c0
       0.3489445 -0.77429754 1.4853822 -2.0373516
000150 cb 27 13 c0 18 05 33 40 5c 0a 78 3f b2 45 53 bf
       -2.2993038 2.797186 0.9689081 -0.8252822
000160 fa 60 04 be e1 93 64 3f f8 5c 11 40 56 e2 01 3f
       -0.12927619 0.89288145 2.2712994 0.50735986
000170 7c 43 05 be 2d 01 00 3f cd 96 9d 3e 78 87 f3 bf
       -0.13014024 0.50001794 0.30779114 -1.9025717
000180 6f 0f 6e be c9 5e d8 3f 8b bf 64 bf a0 da 4c 3e
       -0.23248075 1.6903926 -0.8935477 0.20005274
000190 17 b4 f7 be 25 98 c4 3e 4a aa aa be 80 6a 93 3f
       -0.48379585 0.38397327 -0.33333045 1.1516876
0001a0 0d 4c 6d 40 e4 fd d9 3d da 25 e9 3f 63 01 e3 3e
       3.7077668 0.10644129 1.8214676 0.44336995
0001b0 5f a4 14 bf 94 7b b2 3d 11 1b 0d 40 66 cb ea 3d
       -0.5806331 0.08714977 2.204777 0.114645764
0001c0 3e 5e 8f 3e ef de d5 3e 74 00 1d 3e e9 e8 2c be
       0.2800159 0.41771647 0.15332204 -0.16885723
0001d0 af 8f a0 bf 67 aa 00 c0 cf 22 ed 3e 4c 97 23 40
       -1.2543849 -2.0104005 0.4631562 2.5561094
0001e0 69 d6 32 bf 84 1c d6 3f 93 36 8d bf d7 a7 3c c0
       -0.69858414 1.6727452 -1.103228 -2.9477441
0001f0 ab fe 09 40 63 3b 15 c0 5c e3 83 3e 21 5c a5 be
       2.1561687 -2.3317497 0.257594 -0.3229685
000200 b8 86 c5 3f 86 30 a0 bd 72 34 ba 3f b8 e4 24 bf
       1.5431738 -0.07821755 1.4547255 -0.644115
000210 27 5a b6 be 64 e8 9a 3e 24 00 0f 40 8d eb 7e bc
       -0.35615656 0.30255425 2.2343836 -0.015559089
000220 27 14 37 bf be 1d db be 8d 8e 10 3f ca 4c bb 3e
       -0.71515125 -0.4279613 0.56467515 0.36582023
000230 29 41 f6 3f 0c bf 97 be d9 0a e2 3d 0c 9d 3c 3e
       1.9238635 -0.29637945 0.11037225 0.18419284
000240 f8 45 d5 be a8 d0 92 39 12 4e 67 3f d7 36 b9 3d
       -0.41654944 0.0002800275 0.903535 0.09043663
000250 44 d7 cf 3e 14 1f 77 be 5a 6a 4b 3f 21 18 79 bf
       0.40593922 -0.24132949 0.79459155 -0.9730244
000260 2c b6 75 3d 6c a5 e0 bf 3d 08 f8 3d ec 91 b2 3f
       0.059988186 -1.7550483 0.12110946 1.3950782
000270 ba bc ed be fc 62 26 3f 7b ac 8d 3f 32 15 93 3f
       -0.4643305 0.6499479 1.1068262 1.1490843
000280 06 5f 5c 3f 68 b8 1e c0 07 ab 36 40 9b 54 d9 3f
       0.86082494 -2.4800053 2.8541887 1.6978945
000290 e8 be b5 bf 4a ad 75 3d 7e 5e 73 be 8e d8 67 bd
       -1.4198885 0.059979714 -0.23766515 -0.056603007
0002a0 28 44 10 40 ed a7 23 40 40 00 ba bf 6f 89 21 bf
       2.25416 2.5571244 -1.4531326 -0.6310033
0002b0 af 6d ad 3e 85 c7 bc 3f 43 ea 2d bf 31 99 37 bf
       0.33872744 1.4748389 -0.6793558 -0.71718127
0002c0 e6 4e 54 40 37 8b 56 bd d5 8e c0 be a6 99 c4 bf
       3.3173156 -0.05237886 -0.37608972 -1.535939
0002d0 74 24 34 40 f6 23 a4 40 1e 41 b3 3f c6 f7 93 bf
       2.814725 5.12939 1.4004247 -1.155999
0002e0 5e f1 4a bf 52 cb 75 3f 87 dc f9 be e6 f9 3e be
       -0.7927455 0.9601337 -0.48801062 -0.18650016
0002f0 5c a4 95 3b 21 1c dd 3e 77 02 c1 3f e0 1f 04 bd
       0.0045667123 0.43185523 1.5078877 -0.03225696
000300 60 05 c4 be b5 52 57 40 ec 2f 0b 3f 7b dd ed 3e
       -0.3828535 3.364423 0.5437 0.4645804
000310 28 94 b1 bf 64 9b bd 3f 79 9f 56 3f 64 a5 39 bf
       -1.3873339 1.4813046 0.83837086 -0.7251799
000320 a0 04 1a 3f 19 f4 62 bf 19 fb bd 3f 28 de 6e 3f
       0.6016331 -0.88653713 1.4842254 0.93307734
000330 b9 e7 c3 3e 3c 5b ee bf 71 44 62 3f c9 1d a0 bf
       0.38262728 -1.8621593 0.88385683 -1.250909
000340 d6 36 f4 3f e2 6f b0 3f e9 ca c8 3c 1c 63 1a bf
       1.9079235 1.3784144 0.024510818 -0.6030748
000350 99 75 8b 3e 87 ea 03 3f 51 ca 19 3f ee de 05 3f
       0.27238157 0.51529735 0.60074335 0.5229329
000360 7e 7f 35 be 07 e4 94 be f1 e8 75 bd 76 39 ca 3c
       -0.17724416 -0.2908022 -0.060036603 0.024685603
000370 4d 94 9d bf e0 d4 bf 3f ee d3 ba 3e c6 9f b1 3f
       -1.2310883 1.4986839 0.36489815 1.3876884
000380 63 23 d8 3f 45 5e 09 bf 59 ba 2a be e7 e9 1a be
       1.6885799 -0.5365947 -0.16672648 -0.15128289
000390 c1 c8 30 40 93 ba ee be 38 b4 c6 3f d3 8d 0a 3f
       2.762253 -0.4662672 1.5523748 0.54122657
0003a0 fb 65 13 bf d9 64 cd be 05 fc 12 bf ca 6c e8 3e
       -0.57577485 -0.40116003 -0.574158 0.453955
0003b0 34 99 df 3f d7 00 a1 be 97 ad 8a 3f 55 c6 1f bf
       1.7468629 -0.31445953 1.0834225 -0.62412006
0003c0 1d 21 fd 3d f9 60 a3 bc c3 59 21 bf ae 3f 04 3f
       0.123598315 -0.019943701 -0.6302759 0.5165967
0003d0 e9 33 ef 3e f8 0d 00 40 27 0f a4 be 80 4b 0b 3f
       0.46719292 2.0008526 -0.3204281 0.5441208
0003e0 17 66 e8 bc ff be 20 3f e9 bc 48 3f 2b e4 7c be
       -0.028368993 0.62791437 0.78413254 -0.24696414
0003f0 1d c1 a6 be af 35 b2 bf bc 65 83 3f 10 00 8b 3e
       -0.3256921 -1.3922633 1.0265422 0.27148485

linear1.bias f4 [64]
000000 ab 28 b7 3c e7 4b 13 3d e7 6f ff 3c 9e b5 73 bd
       0.02235826 0.035961058 0.031181289 -0.059499376
000010 27 d8 25 bd 40 4e a5 bd 76 50 6e bd 76 43 4b 3d
       -0.040489342 -0.08071566 -0.058182202 0.049624883
000020 f9 f8 36 3d 4f 9f c9 bc f9 7e e9 bb b8 d1 36 3d
       0.044671033 -0.024612097 -0.007125732 0.044633597
000030 73 72 bc bc 35 f4 82 bd 79 b0 e4 bb 23 dd a4 bc
       -0.023003792 -0.06394235 -0.006979045 -0.020124977
000040 ef 67 e6 3a 72 47 e4 bc e4 df 87 3c 1e 43 3a 3d
       0.0017578582 -0.027866099 0.016586252 0.045474164
000050 a1 40 4f 3d 37 7f 72 3b 99 60 f2 bc 37 80 1c bd
       0.050598744 0.0037002095 -0.029587077 -0.038208213
000060 d5 47 11 3d ef 97 4d bc 39 fb 90 3c 8a 3b a7 3b
       0.035468895 -0.012548431 0.017697917 0.005103533
000070 ef a6 70 ba 6b 6c 2d bb 2b 93 3a 3d 24 18 11 bd
       -0.00091801485 -0.0026462327 0.045550507 -0.035423413
000080 f0 c4 38 bb 50 95 02 3c 0e 84 6c 3d 36 74 89 3d
       -0.0028193556 0.007970169 0.057743125 0.067116186
000090 d1 3e af 3b 0b 05 d3 3c 2f 73 a7 bc 7a 73 b7 bc
       0.0053480645 0.02575924 -0.020440666 -0.02239393
0000a0 73 b3 1c 3d 9f 53 27 bc f4 33 73 bc cc fc fb 3c
       0.038257074 -0.010212808 -0.01484393 0.030760191
0000b0 a0 a9 46 3d b8 e3 3b bd 47 88 b8 3c 66 90 29 3d
       0.04850161 -0.045871466 0.02252592 0.041397475
0000c0 cf 81 82 bb aa 42 05 3d 8f 87 2b 3d 59 83 d3 bb
       -0.0039827595 0.03253428 0.041877326 -0.006454867
0000d0 52 2d 16 3d bd 65 07 bc c0 8b 01 3d 59 a2 0c bc
       0.036664315 -0.008264002 0.031627417 -0.008583629
0000e0 8f 9f f4 3c 8c 89 22 bd 8b 34 98 3d 3d f3 e9 3a
       0.02986124 -0.039681956 0.07431897 0.001784898
0000f0 93 a3 97 3a 6d 0b 20 3c 60 16 52 3c c0 7b 54 bc
       0.0011569135 0.009768349 0.012822717 -0.012968957

bn4.weight f4 [64]
000000 57 e1 b7 3f b0 66 9d 3f b1 63 98 3f 9d 14 7f 3f
       1.4365643 1.2296963 1.1905423 0.9964083
000010 6a c0 8e 3f 0c be 84 3f 8c bc b8 3f 01 40 cd 3f
       1.115247 1.0370498 1.443254 1.6035157
000020 9e 28 97 3f 6f e4 98 3f 94 72 8c 3f 01 62 76 3e
       1.180927 1.1944712 1.0972466 0.24060823
000030 25 61 21 3f ee 56 44 3f d0 cc 8d 3f 3d 6b 61 3f
       0.63038856 0.76695144 1.1078129 0.8805426
000040 cc 24 5d 3e 72 92 5d 3e b6 24 bb 3f bb f1 52 3e
       0.21596068 0.21637896 1.4620578 0.20600025
000050 64 e8 7b 3f 6e 2e 0c 3f 47 ee 9f 3f 00 0d c2 3f
       0.98401475 0.54758346 1.2494591 1.5160217
000060 e9 ec a5 3f 99 bb 77 3f ad f1 bb 3e bb ef 4b 3f
       1.2962924 0.96770626 0.3670782 0.79662675
000070 af 18 4e 3f 7b 5f 7b 3f 93 c6 c4 3f a9 a7 a1 3e
       0.80506414 0.98192567 1.53731 0.31573227
000080 07 28 83 3f 85 0e b7 3f 56 b0 82 3f 33 7f b1 3f
       1.024659 1.4301306 1.0210063 1.3866943
000090 3f 1e 85 3f b3 1b 86 3f db 32 57 3f dc 3b 9e 3f
       1.0399855 1.0477203 0.84061974 1.2362018
0000a0 bb 0a bc 3f 50 d5 87 3f 93 d3 b4 3f b6 f4 70 3f
       1.4690775 1.0611973 1.4127067 0.941234
0000b0 76 91 e8 3e e9 d1 7f 3f 1e 64 63 3f ad 00 30 3f
       0.45423478 0.9992967 0.8882464 0.6875103
0000c0 3a 5b 99 3f db ae ac 3f ab 33 78 3f da b7 b5 3f
       1.1980965 1.3490862 0.9695384 1.4196732
0000d0 3b 5b 9e 3f 1d 5e 9e 3f 54 47 87 3f 95 cd 90 3f
       1.2371591 1.2372471 1.0568643 1.1312739
0000e0 7c a6 98 3f 9b ca 7b 3f db 8e b0 3e 40 d2 b0 3f
       1.1925807 0.98356026 0.3448399 1.3814163
0000f0 0c db 9f 3f 20 77 6c 3f 74 3e a1 3f 17 32 9c 3f
       1.2488723 0.9236927 1.2597184 1.2202786

bn4.bias f4 [64]
000000 31 61 00 bf aa a4 d2 be b2 bd cc be 9e b9 27 3e
       -0.501483 -0.41141254 -0.39988476 0.16379401
000010 fe 91 50 bf 01 14 8b be ee 7f 62 be b5 18 55 3e
       -0.81472766 -0.271637 -0.22119114 0.20810206
000020 95 c6 33 bf 79 84 b3 bd 37 60 34 bd a9 1d 67 bf
       -0.7022489 -0.087655015 -0.04403707 -0.9027963
000030 bd f0 36 bf f2 06 32 be ce b5 bd 3c 0a be 1d 3e
       -0.7146109 -0.17385462 0.02315798 0.15404525
000040 81 9a 6e bf c8 01 30 bf c4 5d bd bd dd a7 00 bf
       -0.93204504 -0.6875272 -0.092464 -0.5025614
000050 61 6e 63 be ef 73 36 bf d2 06 88 be 92 9d 9a be
       -0.22210075 -0.7127065 -0.26567703 -0.30198342
000060 e8 10 c8 be 07 76 23 be 69 8e 9b bf 3a fc 91 be
       -0.39075398 -0.15962993 -1.2152835 -0.28512746
000070 2a 5e d0 be 84 66 ba be ec a9 3d be db bb 31 bf
       -0.4069684 -0.36406338 -0.18521851 -0.6942727
000080 fe 45 3c be c1 36 a2 3c 5c 5c 99 be 21 a4 a2 3c
       -0.18386075 0.0198015 -0.29953277 0.019853653
000090 bc 9a 7c 3d 73 59 f7 3d 57 78 5a 3c 99 3a 8e be
       0.061671004 0.12077608 0.013334355 -0.2777908
0000a0 ff e3 ec bd 72 65 08 bf 39 60 af bb 2c 0b 17 be
       -0.11566924 -0.53279793 -0.005352047 -0.14750355
0000b0 f2 b0 0d bf c9 8e 53 bd 82 87 cd be 63 92 59 3e
       -0.5534812 -0.051649842 -0.40142447 0.21247248
0000c0 e6 a9 4b be c1 d8 fc bd b2 91 9e bd d6 ef c2 3e
       -0.1988903 -0.1234603 -0.07742633 0.38073605
0000d0 85 47 b9 be 4f 67 22 bf 6c 3b ef bd 2f 81 69 be
       -0.36187378 -0.63438886 -0.11681256 -0.22803186
0000e0 f6 5b c0 3e 60 0e bf bd 26 e4 84 bf e8 2a bf bd
       0.3757016 -0.09328914 -1.0382125 -0.093343556
0000f0 7b f1 6a bd 42 00 15 bb 43 e0 ea bd 03 2e 2e bd
       -0.0573592 -0.002273575 -0.11468556 -0.04252435
